Model: "sequential"
_________________________________________________________________
Layer (type)                 Output Shape              Param #   
=================================================================
conv2d (Conv2D)              (None, 20, 20, 32)        8224      
_________________________________________________________________
conv2d_1 (Conv2D)            (None, 9, 9, 64)          32832     
_________________________________________________________________
conv2d_2 (Conv2D)            (None, 7, 7, 64)          36928     
_________________________________________________________________
flatten (Flatten)            (None, 3136)              0         
_________________________________________________________________
dense (Dense)                (None, 512)               1606144   
_________________________________________________________________
dense_1 (Dense)              (None, 6)                 3078      
=================================================================
Total params: 1,687,206
Trainable params: 1,687,206
Non-trainable params: 0
_________________________________________________________________
None
Training BatchmodeDQNAgent on pong for 3000000 timesteps with seed=0
timestep  episode  avg_return  epsilon
0  334  -21.0  0.100
5000  340  -20.98  0.100
10000  346  -20.97  0.100
15000  352  -20.96  0.100
…
